…
{"type":"tool_use","timestamp":1784659814683,"sessionID":"ses_079ff36e1ffecENBDaKokQmAFl","part":{"type":"tool","tool":"bash","callID":"call_74164c1a4d1d4eb182d70af3","state":{"status":"completed","input":{"command":"cd /app/pointnet2_ops_lib && python3 -c \"\nfrom pointnet2_ops import pointnet2_modules\n\n# Check if the build_shared_mlp has an in-place mutation issue\nmlp = [3, 64, 64, 128]\nsa = pointnet2_modules.PointnetSAModule(\n    npoint=512, radius=0.2, nsample=32, mlp=mlp\n)\nprint('mlp after creation:', mlp)  # Check if original list was mutated\nprint('sa.mlps[0]:', sa.mlps[0])\n\" 2>&1"},"output":"mlp after creation: [6, 64, 64, 128]\nsa.mlps[0]: Sequential(\n  (0): Conv2d(6, 64, kernel_size=(1, 1), stride=(1, 1), bias=False)\n  (1): BatchNorm2d(64, eps=1e-05, momentum=0.1, affine=True, track_running_stats=True)\n  (2): ReLU(inplace=True)\n  (3): Conv2d(64, 64, kernel_size=(1, 1), stride=(1, 1), bias=False)\n  (4): BatchNorm2d(64, eps=1e-05, momentum=0.1, affine=True, track_running_stats=True)\n  (5): ReLU(inplace=True)\n  (6): Conv2d(64, 128, kernel_size=(1, 1), stride=(1, 1), bias=False)\n  (7): BatchNorm2d(128, eps=1e-05, momentum=0.1, affine=True, track_running_stats=True)\n  (8): ReLU(inplace=True)\n)\n","metadata":{"output":"mlp after creation: [6, 64, 64, 128]\nsa.mlps[0]: Sequential(\n  (0): Conv2d(6, 64, kernel_size=(1, 1), stride=(1, 1), bias=False)\n  (1): BatchNorm2d(64, eps=1e-05, momentum=0.1, affine=True, track_running_stats=True)\n  (2): ReLU(inplace=True)\n  (3): Conv2d(64, 64, kernel_size=(1, 1), stride=(1, 1), bias=False)\n  (4): BatchNorm2d(64, eps=1e-05, momentum=0.1, affine=True, track_running_stats=True)\n  (5): ReLU(inplace=True)\n  (6): Conv2d(64, 128, kernel_size=(1, 1), stride=(1, 1), bias=False)\n  (7): BatchNorm2d(128, eps=1e-05, momentum=0.1, affine=True, track_running_stats=True)\n  (8): ReLU(inplace=True)\n)\n","exit":0,"truncated":false},"title":"cd /app/pointnet2_ops_lib && python3 -c \"\nfrom pointnet2_ops import pointnet2_modules\n\n# Check if the build_shared_mlp has an in-place mutation issue\nmlp = [3, 64, 64, 128]\nsa = pointnet2_modules.PointnetSAModule(\n    npoint=512, radius=0.2, nsample=32, 
…
